…
om /usr/local/lib/python3.6/dist-packages/keras/backend/tensorflow_backend.py:3733: calling dropout (from tensorflow.python.ops.nn_ops) with keep_prob is deprecated and will be removed in a future version.\n","Instructions for updating:\n","Please use `rate` instead of `keep_prob`. Rate should be set to `rate = 1 - keep_prob`.\n","Model: \"sequential_1\"\n","_________________________________________________________________\n","Layer (type)                 Output Shape              Param #   \n","=================================================================\n","conv2d_1 (Conv2D)            (None, 28, 28, 16)        416       \n","_________________________________________________________________\n","max_pooling2d_1 (MaxPooling2 (None, 14, 14, 16)        0         \n","_________________________________________________________________\n","conv2d_2 (Conv2D)            (None, 14, 14, 36)        14436     \n","_________________________________________________________________\n","max_pooling2d_2 (MaxPooling2 (None, 7, 7, 36)          0         \n","_________________________________________________________________\n","dropout_1 (Dropout)          (None, 7, 7, 36)          0         \n","_________________________________________________________________\n","flatten_1 (Flatten)          (None, 1764)              0         \n","_________________________________________________________________\n","dense_1 (Dense)              (None, 10)                17650     \n","=================================================================\n","Total params: 32,502\n","Trainable params: 32,502\n","Non-trainable params: 0\n","_________________________________________________________________\n","WARNING:tensorflow:From /usr/local/lib/python3.6/dist-packages/keras/optimizers.py:793: The name tf.train.Optimizer is deprecated. Please use tf.compat.v1.train.Optimiz
…
